backend: tensorflow
class_name: Model
config:
  input_layers:
  - [input_2, 0, 0]
  layers:
  - class_name: InputLayer
    config:
      batch_input_shape: !!python/tuple [1, 1, 12]
      dtype: float32
      name: input_2
      sparse: false
    inbound_nodes: []
    name: input_2
  - class_name: LSTM
    config:
      activation: tanh
      activity_regularizer: null
      bias_constraint: null
      bias_initializer:
        class_name: Zeros
        config: {}
      bias_regularizer: null
      dropout: 0.0
      go_backwards: false
      implementation: 0
      kernel_constraint: null
      kernel_initializer:
        class_name: RandomUniform
        config: {maxval: 0.05, minval: -0.05, seed: null}
      kernel_regularizer: null
      name: lstm_4
      recurrent_activation: hard_sigmoid
      recurrent_constraint: null
      recurrent_dropout: 0.0
      recurrent_initializer:
        class_name: Orthogonal
        config: {gain: 1.0, seed: null}
      recurrent_regularizer: null
      return_sequences: true
      stateful: true
      trainable: true
      unit_forget_bias: true
      units: 144
      unroll: false
      use_bias: true
    inbound_nodes:
    - - - input_2
        - 0
        - 0
        - {}
    name: lstm_4
  - class_name: LSTM
    config:
      activation: tanh
      activity_regularizer: null
      bias_constraint: null
      bias_initializer:
        class_name: Zeros
        config: {}
      bias_regularizer: null
      dropout: 0.0
      go_backwards: false
      implementation: 0
      kernel_constraint: null
      kernel_initializer:
        class_name: RandomUniform
        config: {maxval: 0.05, minval: -0.05, seed: null}
      kernel_regularizer: null
      name: lstm_5
      recurrent_activation: hard_sigmoid
      recurrent_constraint: null
      recurrent_dropout: 0.0
      recurrent_initializer:
        class_name: Orthogonal
        config: {gain: 1.0, seed: null}
      recurrent_regularizer: null
      return_sequences: true
      stateful: true
      trainable: true
      unit_forget_bias: true
      units: 72
      unroll: false
      use_bias: true
    inbound_nodes:
    - - - lstm_4
        - 0
        - 0
        - {}
    name: lstm_5
  - class_name: LSTM
    config:
      activation: tanh
      activity_regularizer: null
      bias_constraint: null
      bias_initializer:
        class_name: Zeros
        config: {}
      bias_regularizer: null
      dropout: 0.0
      go_backwards: false
      implementation: 0
      kernel_constraint: null
      kernel_initializer:
        class_name: RandomUniform
        config: {maxval: 0.05, minval: -0.05, seed: null}
      kernel_regularizer: null
      name: lstm_6
      recurrent_activation: hard_sigmoid
      recurrent_constraint: null
      recurrent_dropout: 0.0
      recurrent_initializer:
        class_name: Orthogonal
        config: {gain: 1.0, seed: null}
      recurrent_regularizer: null
      return_sequences: false
      stateful: true
      trainable: true
      unit_forget_bias: true
      units: 36
      unroll: false
      use_bias: true
    inbound_nodes:
    - - - lstm_5
        - 0
        - 0
        - {}
    name: lstm_6
  - class_name: Dense
    config:
      activation: linear
      activity_regularizer: null
      bias_constraint: null
      bias_initializer:
        class_name: Zeros
        config: {}
      bias_regularizer: null
      kernel_constraint:
        class_name: MaxNorm
        config: {axis: 0, max_value: 4}
      kernel_initializer:
        class_name: RandomUniform
        config: {maxval: 0.05, minval: -0.05, seed: null}
      kernel_regularizer: null
      name: dense_2
      trainable: true
      units: 1
      use_bias: true
    inbound_nodes:
    - - - lstm_6
        - 0
        - 0
        - {}
    name: dense_2
  - class_name: Activation
    config: {activation: tanh, name: activation_2, trainable: true}
    inbound_nodes:
    - - - dense_2
        - 0
        - 0
        - {}
    name: activation_2
  name: model_2
  output_layers:
  - [activation_2, 0, 0]
keras_version: 2.0.4
